…
                logger.info(
                    "Epoch {:04d} | Time {:.3f} ({:.3f}) | NFE-F {:.1f} | NFE-B {:.1f} | "
                    "Train Acc {:.4f} | Test Acc {:.4f}".format(
                        itr // batches_per_epoch, batch_time_meter.val, batch_time_meter.avg, f_nfe_meter.avg,
                        b_nfe_meter.avg, train_acc, val_acc
                    )
                )

Namespace(adjoint=True, batch_size=128, data_aug=True, debug=False, downsampling_method='res', gpu=0, lr=0.1, nepochs=160, network='odenet', save='./experiment1', test_batch_size=1000, tol=0.001)
Sequential(
  (0): Conv2d(1, 64, kernel_size=(3, 3), stride=(1, 1))
  (1): ResBlock(
    (norm1): GroupNorm(32, 64, eps=1e-05, affine=True)
    (relu): ReLU(inplace)
    (downsample): Conv2d(64, 64, kernel_size=(1, 1), stride=(2, 2), bias=False)
    (conv1): Conv2d(64, 64, kernel_size=(3, 3), stride=(2, 2), padding=(1, 1), bias=False)
    (norm2): GroupNorm(32, 64, eps=1e-05, affine=True)
    (conv2): Conv2d(64, 64, kernel_size=(3, 3), stride=(1, 1), padding=(1, 1), bias=False)
  )
  (2): ResBlock(
    (norm1): GroupNorm(32, 64, eps=1e-05, affine=True)
    (relu): ReLU(inplace)
    (downsample): Conv2d(64, 64, kernel_size=(1, 1), stride=(2, 2), bias=False)
    (conv1): Conv2d(64, 64, kernel_size=(3, 3), stride=(2, 2), padding=(1, 1), bias=False)
    (norm2): GroupNorm(32, 64, eps=1e-05, affine=True)
    (conv2): Conv2d(64, 64, kernel_size=(3, 3), stride=(1, 1), padding=(1, 1), bias=False)
  )
  (3): ODEBlock(
    (odefunc): ODEfunc(
      (norm1): GroupNorm(32, 64, eps=1e-05, affine=True)
      (relu): ReLU(inplace)
      (conv1): Conv2d(64, 64, kernel_size=(3, 3), stride=(1, 1), padding=(1, 1), bias=False)
      (norm2): GroupNorm(32, 64, eps=1e-05, affine=True)
      (conv2): Conv2d(64, 64, kernel_size=(3, 3), stride=(1, 1), padding=(1, 1), bias=False)
      (norm3): GroupNorm(32, 64, eps=1e-05, affine=True)
    )
  )
  (4): GroupNorm(32, 64, eps=1e-05, affine=True)
  (5): ReLU(inplace)
  (6): AdaptiveAvgPool2d(output_size=(1, 1))
  (7): Flatten()
  (8): Linear(in_features=64, out_features=10, bias=True)
)
Number of parameters: 231690
Epoch 0000 | Time 0.349 (0.349) | NFE-F 26.0 | NFE-B 33.0 | Train Acc 0.0975 | Test Acc 0.0974
Epoch 0001 | Time 0.378 (0.144) | NFE-F 20.2 | NFE-B 21.1 | Train Acc 0.9811 | Test Acc 0.9852
/home/awehenkel/NODE/torchdiffeq/examples/odenet_mnist.py
import os
import argparse
import logging
import time
import numpy as np
import torch
…
